…
ue, track_running_stats=True)", "parameters": [["weight", [64]], ["bias", [64]]], "output_shape": [[8, 64, 100, 100]], "num_parameters": [64, 64]}, {"name": "layers.0.2", "id": 2359099024912, "class_name": "ReLU(inplace=True)", "parameters": [], "output_shape": [[8, 64, 100, 100]], "num_parameters": []}, {"name": "layers.0.3", "id": 2359099134544, "class_name": "MaxPool2d(kernel_size=3, stride=2, padding=1, dilation=1, ceil_mode=False)", "parameters": [], "output_shape": [[8, 64, 50, 50]], "num_parameters": []}, {"name": "layers.0.4.0", "id": 2359099137616, "class_name": "BasicBlock(\n  (conv1): Conv2d(64, 64, kernel_size=(3, 3), stride=(1, 1), padding=(1, 1), bias=False)\n  (bn1): BatchNorm2d(64, eps=1e-05, momentum=0.1, affine=True, track_running_stats=True)\n  (relu): ReLU(inplace=True)\n  (conv2): Conv2d(64, 64, kernel_size=(3, 3), stride=(1, 1), padding=(1, 1), bias=False)\n  (bn2): BatchNorm2d(64, eps=1e-05, momentum=0.1, affine=True, track_running_stats=True)\n)", "parameters": [["conv1.weight", [64, 64, 3, 3]], ["bn1.weight", [64]], ["bn1.bias", [64]], ["conv2.weight", [64, 64, 3, 3]], ["bn2.weight", [64]], ["bn2.bias", [64]]], "output_shape": [[8, 64, 50, 50]], "num_parameters": [36864, 64, 64, 36864, 64, 64]}, {"name": "layers.0.4.1", "id": 2358901013712, "class_name": "BasicBlock(\n  (conv1): Conv2d(64, 64, kernel_size=(3, 3), stride=(1, 1), padding=(1, 1), bias=False)\n  (bn1): BatchNorm2d(64, eps=1e-05, momentum=0.1, affine=True, track_running_stats=True)\n  (relu): ReLU(inplace=True)\n  (conv2): Conv2d(64, 64, kernel_size=(3, 3), stride=(1, 1), padding=(1, 1), bias=False)\n  (bn2): BatchNorm2d(64, eps=1e-05, momentum=0.1, affine=True, track_running_stats=True)\n)", "parameters": [["conv1.weight", [64, 64, 3, 3]], ["bn1.weight", [64]], ["bn1.bias", [64]], ["conv2.weight", [64, 64, 3, 3]], ["bn2.weight", [64]], ["bn2.bias", [64]]], "output_shape": [[8, 64, 50, 50]], "num_parameters": [36864, 64, 64, 36864, 64, 64]}, {"name": "layers.0.4.2", "id": 2359099187696, "class_name": "BasicBlock(\n  (conv1): Conv2d(64, 64, kernel_size=(3, 3), stride=(1, 1), padding=(1, 1), bias=False)\n  (bn1): BatchNorm2d(64, eps=1e-05, momentum=0.1, affine=True, track_running_stats=True)\n  (relu): ReLU(inplace=True)\n  (conv2): Conv2d(64, 64, kernel_size=(3, 3), stride=(1, 1), padding=(1, 1), bias=False)\n  (bn2): BatchNorm2d(64, eps=1e-05, momentum=0.1, affine=True, track_running_stats=True)\n)", "parameters": [["conv1.weight", [64, 64, 3, 3]], ["bn1.weight", [64]], ["bn1.bias", [64]], ["conv2.weight", [64, 64, 3, 3]], ["bn2.weight", [64]], ["bn2.bias", [64]]], "output_shape": [[8, 64, 50, 50]], "num_parameters": [36864, 64, 64, 36864, 64, 64]}, {"name": "layers.0.5.0", "id": 2359099190816, "class_name": "BasicBlock(\n  (conv1): Conv2d(64, 128, kernel_size=(3, 3), stride=(2, 2), padding=(1, 1), bias=False)\n  (bn1): BatchNorm2d(128, eps=1e-05, momentum=0.1, affine=True, track_running_stats=True)\n  (relu): ReLU(inplace=True)\n  (conv2): Conv2d(128, 128, kernel_size=(3, 3), stride=(1, 1), padding=(1, 1), bias=False)\n  (bn2): BatchNorm2d(128, eps=1e-05, momentum=0.1, affine=True, track_running_stats=True)\n  (downsample): Sequential(\n    (0): Conv2d(64, 128, kernel_size=(1, 1), stride=(2, 2), bias=False)\n    (1): BatchNorm2d(128, eps=1e-05, momentum=0.1, affine=True, track_running_stats=True)\n  )\n)", "parameters": [["conv1.weight", [128, 64, 3, 3]], ["bn1.weight", [128]], ["bn1.bias", [128]], ["conv2.weight", [128, 128, 3, 3]], ["bn2.weight", [128]], ["bn2.bias", [128]], ["downsample.0.weight", [128, 64, 1, 1]], ["downsample.1.weight", [128]], ["downsample.1.bias", [128]]], "output_shape": [[8, 128, 25, 25]], "num_parameters": [73728, 128, 128, 147456, 128, 128, 8192, 128, 128]}, {"name": "layers.0.5.1", "id": 2359095589376, "class_name": "BasicBlock(\n  (conv1): Conv2d(128, 128, kernel_size=(3, 3), stride=(1, 1), padding=(1, 1), bias=False)\n  (bn1): BatchNorm2d(128, eps=1e-05, momentum=0.1, affine=True, track_running_stats=True)\n  (relu): ReLU(inplace=True)\n  (conv2): Conv2d(128, 128, kernel_size=(3, 3), stride=(1, 1), padding=(1, 1), bias=False)\n  (bn2): BatchNorm2d(128, eps=1e-05, momentum=0.1, affine=True, track_running_stats=True)\n)", "parameters": [["conv1.weight", [128, 128, 3, 3]], ["bn1.weight", [128]], ["bn1.bias", [128]], ["conv2.weight", [128, 128, 3, 3]], ["bn2.weight", [128]], ["bn2.bias", [128]]], "output_shape": [[8, 128, 25, 25]], "num_parameters": [147456, 128, 128, 147456, 128, 128]}, {"name": "layers.0.5.2", "id": 2359099245184, "class_name": "BasicBlock(\n  (conv1): Conv2d(128, 128, kernel_size=(3, 3), stride=(1, 1), padding=(1, 1), bias=False)\n  (bn1): BatchNorm2d(128, eps=1e-05, momentum=0.1, affine=True, track_running_stats=True)\n  (relu): ReLU(inplace=True)\n  (conv2): Conv2d(128, 128, kernel_size=(3, 3), stride=(1, 1), padding=(1, 1), bias=False)\n  (bn2): BatchNorm2d(128, eps=1e-05, momentum=0.1, affine=True, track_running_stats=True)\n)", "parameters": [["conv1.weight", [128, 128, 3, 3]], ["bn1.weight", [128]], ["bn1.bias", [128]], ["conv2.weight", [128, 128, 3, 3]], ["bn2.weight", [128]], ["bn2.bias", [128]]], "output_shape": [[8, 128, 25, 25]], "num_parameters": [147456, 128, 128, 147456, 128, 128]}, {"name": "layers.0.5.3", "id": 2359099245232, "class_name": "BasicBlock(\n  (conv1): Conv2d(128, 128, kernel_size=(3, 3), stride=(1, 1), padding=(1, 1), bias=False)\n  (bn1): BatchNorm2d(128, eps=1e-05, momentum=0.1, affine=True, track_running_stats=True)\n  (relu): ReLU(inplace=True)\n  (conv2): Conv2d(128, 128, kernel_size=(3, 3), stride=(1, 1), padding=(1, 1), bias=False)\n  (bn2): BatchNorm2d(128, eps=1e-05, momentum=0.1, affine=True, track_running_stats=True)\n)", "parameters": [["conv1.weight", [128, 128, 3, 3]], ["bn1.weight", [128]], ["bn1.bias", [128]], ["conv2.weight", [128, 128, 3, 3]], ["bn2.weight", [128]], ["bn2.bias", [128]]], "output_shape": [[8, 128, 25, 25]], "num_parameters": [147456, 128, 128, 147456, 128, 128]}, {"name": "layers.0.6.0", "id": 2359099245712, "class_name": "BasicBlock(\n  (conv1): Conv2d(128, 256, kernel_size=(3, 3), stride=(2, 2), padding=(1, 1), bias=False)\n  (bn1): BatchNorm2d(256, eps=1e-05, momentum=0.1, affine=True, track_running_stats=True)\n  (relu): ReLU(inplace=True)\n  (conv2): Conv2d(256, 256, kernel_size=(3, 3), stride=(1, 1), padding=(1, 1), bias=False)\n  (bn2): BatchNorm2d(256, eps=1e-05, momentum=0.1, affine=True, track_running_stats=True)\n  (downsample): Sequential(\n    (0): Conv2d(128, 256, kernel_size=(1, 1), stride=(2, 2), bias=False)\n    (1): BatchNorm2d(256, eps=1e-05, momentum=0.1, affine=True, track_running_stats=True)\n  )\n)", "parameters": [["conv1.weight", [256, 128, 3, 3]], ["bn1.weight", [256]], ["bn1.bias", [256]], ["conv2.weight", [256, 256, 3, 3]], ["bn2.weight", [256]], ["bn2.bias", [256]], ["downsample.0.weight", [256, 128, 1, 1]], ["downsample.1.weight", [256]], ["downsample.1.bias", [256]]], "output_shape": [[8, 256, 13, 13]], "num_parameters": [294912, 256, 256, 589824, 256, 256, 32768, 256, 256]}, {"name": "layers.0.6.1", "id": 2359099246000, "class_name": "BasicBlock(\n  (conv1): Conv2d(256, 256, kernel_size=(3, 3), stride=(1, 1), padding=(1, 1), bias=False)\n  (bn1): BatchNorm2d(256, eps=1e-05, momentum=0.1, affine=True, track_running_stats=True)\n  (relu): ReLU(inplace=True)\n  (conv2): Conv2d(256, 256, kernel_size=(3, 3), stride=(1, 1), padding=(1, 1), bias=False)\n  (bn2): BatchNorm2d(256, eps=1e-05, momentum=0.1, affine=True, track_running_stats=True)\n)", "parameters": [["conv1.weight", [256, 256, 3, 3]], ["bn1.weight", [256]], ["bn1.bias", [256]], ["conv2.weight", [256, 256, 3, 3]], ["bn2.weight", [256]], ["bn2.bias", [256]]], "output_shape": [[8, 256, 13, 13]], "num_parameters": [589824, 256, 256, 589824, 256, 256]}, {"name": "layers.0.6.2", "id": 2359099246288, "class_name": "BasicBlock(\n  (conv1): Conv2d(256, 256, kernel_size=(3, 3), stride=(1, 1), padding=(1, 1), bias=False)\n  (bn1): BatchNorm2d(256, eps=1e-05, momentum=0.1, affine=True, track_running_stats=True)\n  (relu): ReLU(inplace=True)\n  (conv2): Conv2d(256, 256, kernel_size=(3, 3), stride=(1, 1), padding=(1, 1), bias=False)\n  (bn2): BatchNorm2d(256, eps=1e-05, momentum=0.1, affine=True, track_running_stats=True)\n)", "parameters": [["conv1.weight", [256, 256, 3, 3]], ["bn1.weight", [256]], ["bn1.bias", [256]], ["conv2.weight", [256, 256, 3, 3]], ["bn2.weight", [256]], ["bn2.bias", [256]]], "output_shape": [[8, 256, 13, 13]], "num_parameters": [589824, 256, 256, 589824, 256, 256]}, {"name": "layers.0.6.3", "id": 2359099246672, "class_name": "BasicBlock(\n  (conv1): Conv2d(256, 256, kernel_size=(3, 3), stride=(1, 1), padding=(1, 1), bias=False)\n  (bn1): BatchNorm2d(256, eps=1e-05, momentum=0.1, affine=True, track_running_stats=True)\n  (relu): ReLU(inplace=True)\n  (conv2): Conv2d(256, 256, kernel_size=(3, 3), stride=(1, 1), padding=(1, 1), bias=False)\n  (bn2): BatchNorm2d(256, eps=1e-05, momentum=0.1, affine=True, track_running_stats=True)\n)", "parameters": [["conv1.weight", [256, 256, 3, 3]], ["bn1.weight", [256]], ["bn1.bias", [256]], ["conv2.weight", [256, 256, 3, 3]], ["bn2.weight", [256]], ["bn2.bias", [256]]], "output_shape": [[8, 256, 13, 13]], "num_parameters": [589824, 256, 256, 589824, 256, 256]}, {"name": "layers.0.6.4", "id": 2359099246960, "class_name": "BasicBlock(\n  (conv1): Conv2d(256, 256, kernel_size=(3, 3), stride=(1, 1), padding=(1, 1), bias=False)\n  (bn1): BatchNorm2d(256, eps=1e-05, momentum=0.1, affine=True, track_running_stats=True)\n  (relu): ReLU(inplace=True)\n  (conv2): Conv2d(256, 256, kernel_size=(3, 3), stride=(1, 1), padding=(1, 1), bias=False)\n  (bn2): BatchNorm2d(256, eps=1e-05, momentum=0.1, affine=True, track_running_stats=True)\n)", "parameters": [["conv1.weight", [256, 256, 3, 3]], ["bn1.weight", [256]], ["bn1.bias", [256]], ["conv2.weight", [256, 256, 3, 3]], ["bn2.weight", [256]], ["bn2.bias", [256]]], "output_shape": [[8, 256, 13, 13]], "num_parameters": [589824, 256, 256, 589824, 256, 256]}, {"name": "layers.0.6.5", "id": 2359099247296, "class_name": "BasicBlock(\n  (conv1): Conv2d(256, 256, kernel_size=(3, 3), stride=(1, 1), padding=(1, 1), bias=False)\n  (bn1): BatchNorm2d(256, eps=1e-05, momentum=0.1, affine=True, track_running_stats=True)\n  (relu): ReLU(inplace=True)\n  (conv2): Conv2d(256, 256, kernel_size=(3, 3), stride=(1, 1), padding=(1, 1), bias=False)\n  (bn2): BatchNorm2d(256, eps=1e-05, momentum=0.1, affine=True, track_running_stats=True)\n)", "parameters": [["conv1.weight", [256, 256, 3, 3]], ["bn1.weight", [256]], ["bn1.bias", [256]], ["conv2.weight", [256, 256, 3, 3]], ["bn2.weight", [256]], ["bn2.bias", [256]]], "output_shape": [[8, 256, 13, 13]], "num_parameters": [589824, 256, 256, 589824, 256, 256]}, {"name": "layers.0.7.0", "id": 2359099247776, "class_name": "BasicBlock(\n  (conv1): Conv2d(256, 512, kernel_size=(3, 3), stride=(2, 2), padding=(1, 1), bias=False)\n  (bn1): BatchNorm2d(512, eps=1e-05, momentum=0.1, affine=True, track_running_stats=True)\n  (relu): ReLU(inplace=True)\n  (conv2): Conv2d(512, 512, kernel_size=(3, 3), stride=(1, 1), padding=(1, 1), bias=False)\n  (bn2): BatchNorm2d(512, eps=1e-05, momentum=0.1, affine=True, track_running_stats=True)\n  (downsample): Sequential(\n    (0): Conv2d(256, 512, kernel_size=(1, 1), stride=(2, 2), bias=False)\n    (1): BatchNorm2d(512, eps=1e-05, momentum=0.1, affine=True, track_running_stats=True)\n  )\n)", "parameters": [["conv1.weight", [512, 256, 3, 3]], ["bn1.weight", [512]], ["bn1.bias", [512]], ["conv2.weight", [512, 512, 3, 3]], ["bn2.weight", [512]], ["bn2.bias", [512]], ["downsample.0.weight", [512, 256, 1, 1]], ["downsample.1.weight", [512]], ["downsample.1.bias", [512]]], "output_shape": [[8, 512, 7, 7]], "num_parameters": [1179648, 512, 512, 2359296, 512, 512, 131072, 512, 512]}, {"name": "layers.0.7.1", "id": 2359099248064, "class_name": "BasicBlock(\n  (conv1): Conv2d(512, 512, kernel_size=(3, 3), stride=(1, 1), padding=(1, 1), bias=False)\n  (bn1): BatchNorm2d(512, eps=1e-05, momentum=0.1, affine=True, track_running_stats=True)\n  (relu): ReLU(inplace=True)\n  (conv2): Conv2d(512, 512, kernel_size=(3, 3), stride=(1, 1), padding=(1, 1), bias=False)\n  (bn2): BatchNorm2d(512, eps=1e-05, momentum=0.1, affine=True, track_running_stats=True)\n)", "parameters": [["conv1.weight", [512, 512, 3, 3]], ["bn1.weight", [512]], ["bn1.bias", [512]], ["conv2.weight", [512, 512, 3, 3]], ["bn2.weight", [512]], ["bn2.bias", [512]]], "output_shape": [[8, 512, 7, 7]], "num_parameters": [2359296, 512, 512, 2359296, 512, 512]}, {"name": "layers.0.7.2", "id": 2359099248304, "class_name": "BasicBlock(\n  (conv1): Conv2d(512, 512, kernel_size=(3, 3), stride=(1, 1), padding=(1, 1), bias=False)\n  (bn1): BatchNorm2d(512, eps=1e-05, momentum=0.1, affine=True, track_running_stats=True)\n  (relu): ReLU(inplace=True)\n  (conv2): Conv2d(512, 512, kernel_size=(3, 3), stride=(1, 1), padding=(1, 1), bias=False)\n  (bn2): BatchNorm2d(512, eps=1e-05, momentum=0.1, affine=True, track_running_stats=True)\n)", "parameters": [["conv1.weight", [512, 512, 3, 3]], ["bn1.weight", [512]], ["bn1.bias", [512]], ["conv2.weight", [512, 512, 3, 3]], ["bn2.weight", [512]], ["bn2.bias", [512]]], "output_shape": [[8, 512, 7, 7]], "num_parameters": [2359296, 512, 512, 2359296, 512, 512]}, {"name": "layers.1", "id": 2359103567664, "class_name": "
…
[], "output_shape": [[8, 1024, 7, 7]], "num_parameters": []}, {"name": "layers.3.1.0", "id": 2359103567136, "class_name": "Conv2d(1024, 512, kernel_size=(3, 3), stride=(1, 1), padding=(1, 1))", "parameters": [["weight", [512, 1024, 3, 3]], ["bias", [512]]], "output_shape": [[8, 512, 7, 7]], "num_parameters": [4718592, 512]}, {"name": "layers.3.1.1", "id": 2359103566320, "class_name": "Mish()", "parameters": [], "output_shape": [[8, 512, 7, 7]], "num_parameters": []}, {"name": "layers.4", "id": 2359103567424, "class_name": "UnetBlock(\n  (shuf): PixelShuffle_ICNR(\n    (0): ConvLayer(\n      (0): Conv2d(512, 1024, kernel_size=(1, 1), stride=(1, 1))\n      (1): Mish()\n    )\n    (1): PixelShuffle(upscale_factor=2)\n  )\n  (bn): BatchNorm2d(256, eps=1e-05, momentum=0.1, affine=True, track_running_stats=True)\n  (conv1): ConvLayer(\n    (0): Conv2d(512, 512, kernel_size=(3, 3), stride=(1, 1), padding=(1, 1))\n    (1): Mish()\n  )\n  (conv2): ConvLayer(\n    (0): Conv2d(512, 512, kernel_size=(3, 3), stride=(1, 1), padding=(1, 1))\n    (1): Mish()\n  )\n  (relu): Mish()\n)", "parameters": [["shuf.0.0.weight", [1024, 512, 1, 1]], ["shuf.0.0.bias", [1024]], ["bn.weight", [256]], ["bn.bias", [256]], ["conv1.0.weight", [512, 512, 3, 3]], ["conv1.0.bias", [512]], ["conv2.0.weight", [512, 512, 3, 3]], ["conv2.0.bias", [512]]], "output_shape": [[8, 512, 13, 13]], "num_parameters": [524288, 1024, 256, 256, 2359296, 512, 2359296, 512]}, {"name": "layers.5", "id": 2359103568192, "class_name": "UnetBlock(\n  (shuf): PixelShuffle_ICNR(\n    (0): ConvLayer(\n      (0): Conv2d(512, 1024, kernel_size=(1, 1), stride=(1, 1))\n      (1): Mish()\n    )\n    (1): PixelShuffle(upscale_factor=2)\n  )\n  (bn): BatchNorm2d(128, eps=1e-05, momentum=0.1, affine=True, track_running_stats=True)\n  (conv1): ConvLayer(\n    (0): Conv2d(384, 384, kernel_size=(3, 3), stride=(1, 1), padding=(1, 1))\n    (1): Mish()\n  )\n  (conv2): ConvLayer(\n    (0): Conv2d(384, 384, kernel_size=(3, 3), stride=(1, 1), padding=(1, 1))\n    (1): Mish()\n    (2): SelfAttention(\n      (query): ConvLayer(\n        (0): Conv1d(384, 48, kernel_size=(1,), stride=(1,), bias=False)\n      )\n      (key): ConvLayer(\n        (0): Conv1d(384, 48, kernel_size=(1,), stride=(1,), bias=False)\n      )\n      (value): ConvLayer(\n        (0): Conv1d(384, 384, kernel_size=(1,), stride=(1,), bias=False)\n      )\n    )\n  )\n  (relu): Mish()\n)", "parameters": [["shuf.0.0.weight", [1024, 512, 1, 1]], ["shuf.0.0.bias", [1024]], ["bn.weight", [128]], ["bn.bias", [128]], ["conv1.0.weight", [384, 384, 3, 3]], ["conv1.0.bias", [384]], ["conv2.0.weight", [384, 384, 3, 3]], ["conv2.0.bias", [384]], ["conv2.2.gamma", [1]], ["conv2.2.query.0.weight_orig", [48, 384, 1]], ["conv2.2.key.0.weight_orig", [48, 384, 1]], ["conv2.2.value.0.weight_orig", [384, 384, 1]]], "output_shape": [[8, 384, 25, 25]], "num_parameters": [524288, 1024, 128, 128, 1327104, 384, 1327104, 384, 1, 18432, 18432, 147456]}, {"name": "layers.6", "id": 2359103807744, "class_name": "UnetBlock(\n  (shuf): PixelShuffle_ICNR(\n    (0): ConvLayer(\n      (0): Conv2d(384, 768, kernel_size=(1, 1), stride=(1, 1))\n      (1): Mish()\n    )\n    (1): PixelShuffle(upscale_factor=2)\n  )\n  (bn): BatchNorm2d(64, eps=1e-05, momentum=0.1, affine=True, track_running_stats=True)\n  (conv1): ConvLayer(\n    (0): Conv2d(256, 256, kernel_size=(3, 3), stride=(1, 1), padding=(1, 1))\n    (1): Mish()\n  )\n  (conv2): ConvLayer(\n    (0): Conv2d(256, 256, kernel_size=(3, 3), stride=(1, 1), padding=(1, 1))\n    (1): Mish()\n  )\n  (relu): Mish()\n)", "parameters": [["shuf.0.0.weight", [768, 384, 1, 1]], ["shuf.0.0.bias", [768]], ["bn.weight", [64]], ["bn.bias", [64]], ["conv1.0.weight", [256, 256, 3, 3]], ["conv1.0.bias", [256]], ["conv2.0.weight", [256, 256, 3, 3]], ["conv2.0.bias", [256]]], "output_shape": [[8, 256, 50, 50]], "num_parameters": [294912, 768, 64, 64, 589824, 256, 589824, 256]}, {"name": "layers.7", "id": 2359103808272, "class_name": "UnetBlock(\n  (shuf): PixelShuffle_ICNR(\n    (0): ConvLayer(\n      (0): Conv2d(256, 512, kernel_size=(1, 1), stride=(1, 1))\n      (1): Mish()\n    )\n    (1): PixelShuffle(upscale_factor=2)\n  )\n  (bn): BatchNorm2d(64, eps=1e-05, momentum=0.1, affine=True, track_running_stats=True)\n  (conv1): ConvLayer(\n    (0): Conv2d(192, 96, kernel_size=(3, 3), stride=(1, 1), padding=(1, 1))\n    (1): Mish()\n  )\n  (conv2): ConvLayer(\n    (0): Conv2d(96, 96, kernel_size=(3, 3), stride=(1, 1), padding=(1, 1))\n    (1): Mish()\n  )\n  (relu): Mish()\n)", "parameters": [["shuf.0.0.weight", [512, 256, 1, 1]], ["shuf.0.0.bias", [512]], ["bn.weight", [64]], ["bn.bias", [64]], ["conv1.0.weight", [96, 192, 3, 3]], ["conv1.0.bias", [96]], ["conv2.0.weight", [96, 96, 3, 3]], ["conv2.0.bias", [96]]], "output_shape": [[8, 96, 100, 100]], "num_parameters":
…
